{
  "format": "graph-model",
  "generatedBy": "tfjs@4.22.0",
  "convertedBy": "tfjs-converter",
  "modelTopology": {
    "node": [
      {
        "name": "StatefulPartitionedCall/RealESRGAN_1/pixel_shuffle_1/Reshape/shape/3",
        "op": "Const",
        "attr": {
          "value": {
            "tensor": {
              "dtype": "DT_INT32",
              "tensorShape": {}
            }
          },
          "dtype": {
            "type": "DT_INT32"
          }
        }
      },
      {
        "name": "StatefulPartitionedCall/RealESRGAN_1/pixel_shuffle_1/Reshape/shape/4",
        "op": "Const",
        "attr": {
          "value": {
            "tensor": {
              "dtype": "DT_INT32",
              "tensorShape": {}
            }
          },
          "dtype": {
            "type": "DT_INT32"
          }
        }
      },
      {
        "name": "StatefulPartitionedCall/RealESRGAN_1/pixel_shuffle_1/transpose/perm",
        "op": "Const",
        "attr": {
          "value": {
            "tensor": {
              "dtype": "DT_INT32",
              "tensorShape": {
                "dim": [
                  {
                    "size": "6"
                  }
                ]
              }
            }
          },
          "dtype": {
            "type": "DT_INT32"
          }
        }
      },
      {
        "name": "StatefulPartitionedCall/RealESRGAN_1/pixel_shuffle_1/strided_slice/stack",
        "op": "Const",
        "attr": {
          "value": {
            "tensor": {
              "dtype": "DT_INT32",
              "tensorShape": {
                "dim": [
                  {
                    "size": "1"
                  }
                ]
              }
            }
          },
          "dtype": {
            "type": "DT_INT32"
          }
        }
      },
      {
        "name": "StatefulPartitionedCall/RealESRGAN_1/pixel_shuffle_1/strided_slice/stack_1",
        "op": "Const",
        "attr": {
          "value": {
            "tensor": {
              "dtype": "DT_INT32",
              "tensorShape": {
                "dim": [
                  {
                    "size": "1"
                  }
                ]
              }
            }
          },
          "dtype": {
            "type": "DT_INT32"
          }
        }
      },
      {
        "name": "StatefulPartitionedCall/RealESRGAN_1/pixel_shuffle_1/strided_slice/stack_2",
        "op": "Const",
        "attr": {
          "value": {
            "tensor": {
              "dtype": "DT_INT32",
              "tensorShape": {
                "dim": [
                  {
                    "size": "1"
                  }
                ]
              }
            }
          },
          "dtype": {
            "type": "DT_INT32"
          }
        }
      },
      {
        "name": "StatefulPartitionedCall/RealESRGAN_1/pixel_shuffle_1/strided_slice_1/stack",
        "op": "Const",
        "attr": {
          "value": {
            "tensor": {
              "dtype": "DT_INT32",
              "tensorShape": {
                "dim": [
                  {
                    "size": "1"
                  }
                ]
              }
            }
          },
          "dtype": {
            "type": "DT_INT32"
          }
        }
      },
      {
        "name": "StatefulPartitionedCall/RealESRGAN_1/pixel_shuffle_1/strided_slice_1/stack_1",
        "op": "Const",
        "attr": {
          "value": {
            "tensor": {
              "dtype": "DT_INT32",
              "tensorShape": {
                "dim": [
                  {
                    "size": "1"
                  }
                ]
              }
            }
          },
          "dtype": {
            "type": "DT_INT32"
          }
        }
      },
      {
        "name": "StatefulPartitionedCall/RealESRGAN_1/pixel_shuffle_1/strided_slice_1/stack_2",
        "op": "Const",
        "attr": {
          "value": {
            "tensor": {
              "dtype": "DT_INT32",
              "tensorShape": {
                "dim": [
                  {
                    "size": "1"
                  }
                ]
              }
            }
          },
          "dtype": {
            "type": "DT_INT32"
          }
        }
      },
      {
        "name": "StatefulPartitionedCall/RealESRGAN_1/pixel_shuffle_1/mul/y",
        "op": "Const",
        "attr": {
          "value": {
            "tensor": {
              "dtype": "DT_INT32",
              "tensorShape": {}
            }
          },
          "dtype": {
            "type": "DT_INT32"
          }
        }
      },
      {
        "name": "StatefulPartitionedCall/RealESRGAN_1/pixel_shuffle_1/strided_slice_2/stack",
        "op": "Const",
        "attr": {
          "value": {
            "tensor": {
              "dtype": "DT_INT32",
              "tensorShape": {
                "dim": [
                  {
                    "size": "1"
                  }
                ]
              }
            }
          },
          "dtype": {
            "type": "DT_INT32"
          }
        }
      },
      {
        "name": "StatefulPartitionedCall/RealESRGAN_1/pixel_shuffle_1/strided_slice_2/stack_1",
        "op": "Const",
        "attr": {
          "value": {
            "tensor": {
              "dtype": "DT_INT32",
              "tensorShape": {
                "dim": [
                  {
                    "size": "1"
                  }
                ]
              }
            }
          },
          "dtype": {
            "type": "DT_INT32"
          }
        }
      },
      {
        "name": "StatefulPartitionedCall/RealESRGAN_1/pixel_shuffle_1/strided_slice_2/stack_2",
        "op": "Const",
        "attr": {
          "value": {
            "tensor": {
              "dtype": "DT_INT32",
              "tensorShape": {
                "dim": [
                  {
                    "size": "1"
                  }
                ]
              }
            }
          },
          "dtype": {
            "type": "DT_INT32"
          }
        }
      },
      {
        "name": "StatefulPartitionedCall/RealESRGAN_1/pixel_shuffle_1/mul_1/y",
        "op": "Const",
        "attr": {
          "value": {
            "tensor": {
              "dtype": "DT_INT32",
              "tensorShape": {}
            }
          },
          "dtype": {
            "type": "DT_INT32"
          }
        }
      },
      {
        "name": "StatefulPartitionedCall/RealESRGAN_1/prelu_33_1/Neg",
        "op": "Const",
        "attr": {
          "value": {
            "tensor": {
              "dtype": "DT_FLOAT",
              "tensorShape": {
                "dim": [
                  {
                    "size": "1"
                  },
                  {
                    "size": "1"
                  },
                  {
                    "size": "64"
                  }
                ]
              }
            }
          },
          "dtype": {
            "type": "DT_FLOAT"
          }
        }
      },
      {
        "name": "StatefulPartitionedCall/RealESRGAN_1/prelu_31_1/Neg",
        "op": "Const",
        "attr": {
          "value": {
            "tensor": {
              "dtype": "DT_FLOAT",
              "tensorShape": {
                "dim": [
                  {
                    "size": "1"
                  },
                  {
                    "size": "1"
                  },
                  {
                    "size": "64"
                  }
                ]
              }
            }
          },
          "dtype": {
            "type": "DT_FLOAT"
          }
        }
      },
      {
        "name": "StatefulPartitionedCall/RealESRGAN_1/prelu_29_1/Neg",
        "op": "Const",
        "attr": {
          "value": {
            "tensor": {
              "dtype": "DT_FLOAT",
              "tensorShape": {
                "dim": [
                  {
                    "size": "1"
                  },
                  {
                    "size": "1"
                  },
                  {
                    "size": "64"
                  }
                ]
              }
            }
          },
          "dtype": {
            "type": "DT_FLOAT"
          }
        }
      },
      {
        "name": "StatefulPartitionedCall/RealESRGAN_1/prelu_27_1/Neg",
        "op": "Const",
        "attr": {
          "value": {
            "tensor": {
              "dtype": "DT_FLOAT",
              "tensorShape": {
                "dim": [
                  {
                    "size": "1"
                  },
                  {
                    "size": "1"
                  },
                  {
                    "size": "64"
                  }
                ]
              }
            }
          },
          "dtype": {
            "type": "DT_FLOAT"
          }
        }
      },
      {
        "name": "StatefulPartitionedCall/RealESRGAN_1/prelu_25_1/Neg",
        "op": "Const",
        "attr": {
          "value": {
            "tensor": {
              "dtype": "DT_FLOAT",
              "tensorShape": {
                "dim": [
                  {
                    "size": "1"
                  },
                  {
                    "size": "1"
                  },
                  {
                    "size": "64"
                  }
                ]
              }
            }
          },
          "dtype": {
            "type": "DT_FLOAT"
          }
        }
      },
      {
        "name": "StatefulPartitionedCall/RealESRGAN_1/prelu_23_1/Neg",
        "op": "Const",
        "attr": {
          "value": {
            "tensor": {
              "dtype": "DT_FLOAT",
              "tensorShape": {
                "dim": [
                  {
                    "size": "1"
                  },
                  {
                    "size": "1"
                  },
                  {
                    "size": "64"
                  }
                ]
              }
            }
          },
          "dtype": {
            "type": "DT_FLOAT"
          }
        }
      },
      {
        "name": "StatefulPartitionedCall/RealESRGAN_1/prelu_21_1/Neg",
        "op": "Const",
        "attr": {
          "value": {
            "tensor": {
              "dtype": "DT_FLOAT",
              "tensorShape": {
                "dim": [
                  {
                    "size": "1"
                  },
                  {
                    "size": "1"
                  },
                  {
                    "size": "64"
                  }
                ]
              }
            }
          },
          "dtype": {
            "type": "DT_FLOAT"
          }
        }
      },
      {
        "name": "StatefulPartitionedCall/RealESRGAN_1/prelu_19_1/Neg",
        "op": "Const",
        "attr": {
          "value": {
            "tensor": {
              "dtype": "DT_FLOAT",
              "tensorShape": {
                "dim": [
                  {
                    "size": "1"
                  },
                  {
                    "size": "1"
                  },
                  {
                    "size": "64"
                  }
                ]
              }
            }
          },
          "dtype": {
            "type": "DT_FLOAT"
          }
        }
      },
      {
        "name": "StatefulPartitionedCall/RealESRGAN_1/prelu_17_1/Neg",
        "op": "Const",
        "attr": {
          "value": {
            "tensor": {
              "dtype": "DT_FLOAT",
              "tensorShape": {
                "dim": [
                  {
                    "size": "1"
                  },
                  {
                    "size": "1"
                  },
                  {
                    "size": "64"
                  }
                ]
              }
            }
          },
          "dtype": {
            "type": "DT_FLOAT"
          }
        }
      },
      {
        "name": "StatefulPartitionedCall/RealESRGAN_1/prelu_15_1/Neg",
        "op": "Const",
        "attr": {
          "value": {
            "tensor": {
              "dtype": "DT_FLOAT",
              "tensorShape": {
                "dim": [
                  {
                    "size": "1"
                  },
                  {
                    "size": "1"
                  },
                  {
                    "size": "64"
                  }
                ]
              }
            }
          },
          "dtype": {
            "type": "DT_FLOAT"
          }
        }
      },
      {
        "name": "StatefulPartitionedCall/RealESRGAN_1/prelu_13_1/Neg",
        "op": "Const",
        "attr": {
          "value": {
            "tensor": {
              "dtype": "DT_FLOAT",
              "tensorShape": {
                "dim": [
                  {
                    "size": "1"
                  },
                  {
                    "size": "1"
                  },
                  {
                    "size": "64"
                  }
                ]
              }
            }
          },
          "dtype": {
            "type": "DT_FLOAT"
          }
        }
      },
      {
        "name": "StatefulPartitionedCall/RealESRGAN_1/prelu_11_1/Neg",
        "op": "Const",
        "attr": {
          "value": {
            "tensor": {
              "dtype": "DT_FLOAT",
              "tensorShape": {
                "dim": [
                  {
                    "size": "1"
                  },
                  {
                    "size": "1"
                  },
                  {
                    "size": "64"
                  }
                ]
              }
            }
          },
          "dtype": {
            "type": "DT_FLOAT"
          }
        }
      },
      {
        "name": "StatefulPartitionedCall/RealESRGAN_1/prelu_9_1/Neg",
        "op": "Const",
        "attr": {
          "value": {
            "tensor": {
              "dtype": "DT_FLOAT",
              "tensorShape": {
                "dim": [
                  {
                    "size": "1"
                  },
                  {
                    "size": "1"
                  },
                  {
                    "size": "64"
                  }
                ]
              }
            }
          },
          "dtype": {
            "type": "DT_FLOAT"
          }
        }
      },
      {
        "name": "StatefulPartitionedCall/RealESRGAN_1/prelu_7_1/Neg",
        "op": "Const",
        "attr": {
          "value": {
            "tensor": {
              "dtype": "DT_FLOAT",
              "tensorShape": {
                "dim": [
                  {
                    "size": "1"
                  },
                  {
                    "size": "1"
                  },
                  {
                    "size": "64"
                  }
                ]
              }
            }
          },
          "dtype": {
            "type": "DT_FLOAT"
          }
        }
      },
      {
        "name": "StatefulPartitionedCall/RealESRGAN_1/prelu_5_1/Neg",
        "op": "Const",
        "attr": {
          "value": {
            "tensor": {
              "dtype": "DT_FLOAT",
              "tensorShape": {
                "dim": [
                  {
                    "size": "1"
                  },
                  {
                    "size": "1"
                  },
                  {
                    "size": "64"
                  }
                ]
              }
            }
          },
          "dtype": {
            "type": "DT_FLOAT"
          }
        }
      },
      {
        "name": "StatefulPartitionedCall/RealESRGAN_1/prelu_3_1/Neg",
        "op": "Const",
        "attr": {
          "value": {
            "tensor": {
              "dtype": "DT_FLOAT",
              "tensorShape": {
                "dim": [
                  {
                    "size": "1"
                  },
                  {
                    "size": "1"
                  },
                  {
                    "size": "64"
                  }
                ]
              }
            }
          },
          "dtype": {
            "type": "DT_FLOAT"
          }
        }
      },
      {
        "name": "StatefulPartitionedCall/RealESRGAN_1/prelu_1_1/Neg",
        "op": "Const",
        "attr": {
          "value": {
            "tensor": {
              "dtype": "DT_FLOAT",
              "tensorShape": {
                "dim": [
                  {
                    "size": "1"
                  },
                  {
                    "size": "1"
                  },
                  {
                    "size": "64"
                  }
                ]
              }
            }
          },
          "dtype": {
            "type": "DT_FLOAT"
          }
        }
      },
      {
        "name": "StatefulPartitionedCall/RealESRGAN_1/conv_0_1/convolution/ArithmeticOptimizer/FoldMultiplyIntoConv_scaled_StatefulPartitionedCall/RealESRGAN_1/conv_0_1/convolution_ReadVariableOp",
        "op": "Const",
        "attr": {
          "value": {
            "tensor": {
              "dtype": "DT_FLOAT",
              "tensorShape": {
                "dim": [
                  {
                    "size": "3"
                  },
                  {
                    "size": "3"
                  },
                  {
                    "size": "3"
                  },
                  {
                    "size": "64"
                  }
                ]
              }
            }
          },
          "dtype": {
            "type": "DT_FLOAT"
          }
        }
      },
      {
        "name": "StatefulPartitionedCall/RealESRGAN_1/conv_0_1/Reshape",
        "op": "Const",
        "attr": {
          "value": {
            "tensor": {
              "dtype": "DT_FLOAT",
              "tensorShape": {
                "dim": [
                  {
                    "size": "1"
                  },
                  {
                    "size": "1"
                  },
                  {
                    "size": "1"
                  },
                  {
                    "size": "64"
                  }
                ]
              }
            }
          },
          "dtype": {
            "type": "DT_FLOAT"
          }
        }
      },
      {
        "name": "StatefulPartitionedCall/RealESRGAN_1/conv_2_1/convolution/ReadVariableOp",
        "op": "Const",
        "attr": {
          "value": {
            "tensor": {
              "dtype": "DT_FLOAT",
              "tensorShape": {
                "dim": [
                  {
                    "size": "3"
                  },
                  {
                    "size": "3"
                  },
                  {
                    "size": "64"
                  },
                  {
                    "size": "64"
                  }
                ]
              }
            }
          },
          "dtype": {
            "type": "DT_FLOAT"
          }
        }
      },
      {
        "name": "StatefulPartitionedCall/RealESRGAN_1/conv_2_1/Reshape",
        "op": "Const",
        "attr": {
          "value": {
            "tensor": {
              "dtype": "DT_FLOAT",
              "tensorShape": {
                "dim": [
                  {
                    "size": "1"
                  },
                  {
                    "size": "1"
                  },
                  {
                    "size": "1"
                  },
                  {
                    "size": "64"
                  }
                ]
              }
            }
          },
          "dtype": {
            "type": "DT_FLOAT"
          }
        }
      },
      {
        "name": "StatefulPartitionedCall/RealESRGAN_1/conv_4_1/convolution/ReadVariableOp",
        "op": "Const",
        "attr": {
          "value": {
            "tensor": {
              "dtype": "DT_FLOAT",
              "tensorShape": {
                "dim": [
                  {
                    "size": "3"
                  },
                  {
                    "size": "3"
                  },
                  {
                    "size": "64"
                  },
                  {
                    "size": "64"
                  }
                ]
              }
            }
          },
          "dtype": {
            "type": "DT_FLOAT"
          }
        }
      },
      {
        "name": "StatefulPartitionedCall/RealESRGAN_1/conv_4_1/Reshape",
        "op": "Const",
        "attr": {
          "value": {
            "tensor": {
              "dtype": "DT_FLOAT",
              "tensorShape": {
                "dim": [
                  {
                    "size": "1"
                  },
                  {
                    "size": "1"
                  },
                  {
                    "size": "1"
                  },
                  {
                    "size": "64"
                  }
                ]
              }
            }
          },
          "dtype": {
            "type": "DT_FLOAT"
          }
        }
      },
      {
        "name": "StatefulPartitionedCall/RealESRGAN_1/conv_6_1/convolution/ReadVariableOp",
        "op": "Const",
        "attr": {
          "value": {
            "tensor": {
              "dtype": "DT_FLOAT",
              "tensorShape": {
                "dim": [
                  {
                    "size": "3"
                  },
                  {
                    "size": "3"
                  },
                  {
                    "size": "64"
                  },
                  {
                    "size": "64"
                  }
                ]
              }
            }
          },
          "dtype": {
            "type": "DT_FLOAT"
          }
        }
      },
      {
        "name": "StatefulPartitionedCall/RealESRGAN_1/conv_6_1/Reshape",
        "op": "Const",
        "attr": {
          "value": {
            "tensor": {
              "dtype": "DT_FLOAT",
              "tensorShape": {
                "dim": [
                  {
                    "size": "1"
                  },
                  {
                    "size": "1"
                  },
                  {
                    "size": "1"
                  },
                  {
                    "size": "64"
                  }
                ]
              }
            }
          },
          "dtype": {
            "type": "DT_FLOAT"
          }
        }
      },
      {
        "name": "StatefulPartitionedCall/RealESRGAN_1/conv_8_1/convolution/ReadVariableOp",
        "op": "Const",
        "attr": {
          "value": {
            "tensor": {
              "dtype": "DT_FLOAT",
              "tensorShape": {
                "dim": [
                  {
                    "size": "3"
                  },
                  {
                    "size": "3"
                  },
                  {
                    "size": "64"
                  },
                  {
                    "size": "64"
                  }
                ]
              }
            }
          },
          "dtype": {
            "type": "DT_FLOAT"
          }
        }
      },
      {
        "name": "StatefulPartitionedCall/RealESRGAN_1/conv_8_1/Reshape",
        "op": "Const",
        "attr": {
          "value": {
            "tensor": {
              "dtype": "DT_FLOAT",
              "tensorShape": {
                "dim": [
                  {
                    "size": "1"
                  },
                  {
                    "size": "1"
                  },
                  {
                    "size": "1"
                  },
                  {
                    "size": "64"
                  }
                ]
              }
            }
          },
          "dtype": {
            "type": "DT_FLOAT"
          }
        }
      },
      {
        "name": "StatefulPartitionedCall/RealESRGAN_1/conv_10_1/convolution/ReadVariableOp",
        "op": "Const",
        "attr": {
          "value": {
            "tensor": {
              "dtype": "DT_FLOAT",
              "tensorShape": {
                "dim": [
                  {
                    "size": "3"
                  },
                  {
                    "size": "3"
                  },
                  {
                    "size": "64"
                  },
                  {
                    "size": "64"
                  }
                ]
              }
            }
          },
          "dtype": {
            "type": "DT_FLOAT"
          }
        }
      },
      {
        "name": "StatefulPartitionedCall/RealESRGAN_1/conv_10_1/Reshape",
        "op": "Const",
        "attr": {
          "value": {
            "tensor": {
              "dtype": "DT_FLOAT",
              "tensorShape": {
                "dim": [
                  {
                    "size": "1"
                  },
                  {
                    "size": "1"
                  },
                  {
                    "size": "1"
                  },
                  {
                    "size": "64"
                  }
                ]
              }
            }
          },
          "dtype": {
            "type": "DT_FLOAT"
          }
        }
      },
      {
        "name": "StatefulPartitionedCall/RealESRGAN_1/conv_12_1/convolution/ReadVariableOp",
        "op": "Const",
        "attr": {
          "value": {
            "tensor": {
              "dtype": "DT_FLOAT",
              "tensorShape": {
                "dim": [
                  {
                    "size": "3"
                  },
                  {
                    "size": "3"
                  },
                  {
                    "size": "64"
                  },
                  {
                    "size": "64"
                  }
                ]
              }
            }
          },
          "dtype": {
            "type": "DT_FLOAT"
          }
        }
      },
      {
        "name": "StatefulPartitionedCall/RealESRGAN_1/conv_12_1/Reshape",
        "op": "Const",
        "attr": {
          "value": {
            "tensor": {
              "dtype": "DT_FLOAT",
              "tensorShape": {
                "dim": [
                  {
                    "size": "1"
                  },
                  {
                    "size": "1"
                  },
                  {
                    "size": "1"
                  },
                  {
                    "size": "64"
                  }
                ]
              }
            }
          },
          "dtype": {
            "type": "DT_FLOAT"
          }
        }
      },
      {
        "name": "StatefulPartitionedCall/RealESRGAN_1/conv_14_1/convolution/ReadVariableOp",
        "op": "Const",
        "attr": {
          "value": {
            "tensor": {
              "dtype": "DT_FLOAT",
              "tensorShape": {
                "dim": [
                  {
                    "size": "3"
                  },
                  {
                    "size": "3"
                  },
                  {
                    "size": "64"
                  },
                  {
                    "size": "64"
                  }
                ]
              }
            }
          },
          "dtype": {
            "type": "DT_FLOAT"
          }
        }
      },
      {
        "name": "StatefulPartitionedCall/RealESRGAN_1/conv_14_1/Reshape",
        "op": "Const",
        "attr": {
          "value": {
            "tensor": {
              "dtype": "DT_FLOAT",
              "tensorShape": {
                "dim": [
                  {
                    "size": "1"
                  },
                  {
                    "size": "1"
                  },
                  {
                    "size": "1"
                  },
                  {
                    "size": "64"
                  }
                ]
              }
            }
          },
          "dtype": {
            "type": "DT_FLOAT"
          }
        }
      },
      {
        "name": "StatefulPartitionedCall/RealESRGAN_1/conv_16_1/convolution/ReadVariableOp",
        "op": "Const",
        "attr": {
          "value": {
            "tensor": {
              "dtype": "DT_FLOAT",
              "tensorShape": {
                "dim": [
                  {
                    "size": "3"
                  },
                  {
                    "size": "3"
                  },
                  {
                    "size": "64"
                  },
                  {
                    "size": "64"
                  }
                ]
              }
            }
          },
          "dtype": {
            "type": "DT_FLOAT"
          }
        }
      },
      {
        "name": "StatefulPartitionedCall/RealESRGAN_1/conv_16_1/Reshape",
        "op": "Const",
        "attr": {
          "value": {
            "tensor": {
              "dtype": "DT_FLOAT",
              "tensorShape": {
                "dim": [
                  {
                    "size": "1"
                  },
                  {
                    "size": "1"
                  },
                  {
                    "size": "1"
                  },
                  {
                    "size": "64"
                  }
                ]
              }
            }
          },
          "dtype": {
            "type": "DT_FLOAT"
          }
        }
      },
      {
        "name": "StatefulPartitionedCall/RealESRGAN_1/conv_18_1/convolution/ReadVariableOp",
        "op": "Const",
        "attr": {
          "value": {
            "tensor": {
              "dtype": "DT_FLOAT",
              "tensorShape": {
                "dim": [
                  {
                    "size": "3"
                  },
                  {
                    "size": "3"
                  },
                  {
                    "size": "64"
                  },
                  {
                    "size": "64"
                  }
                ]
              }
            }
          },
          "dtype": {
            "type": "DT_FLOAT"
          }
        }
      },
      {
        "name": "StatefulPartitionedCall/RealESRGAN_1/conv_18_1/Reshape",
        "op": "Const",
        "attr": {
          "value": {
            "tensor": {
              "dtype": "DT_FLOAT",
              "tensorShape": {
                "dim": [
                  {
                    "size": "1"
                  },
                  {
                    "size": "1"
                  },
                  {
                    "size": "1"
                  },
                  {
                    "size": "64"
                  }
                ]
              }
            }
          },
          "dtype": {
            "type": "DT_FLOAT"
          }
        }
      },
      {
        "name": "StatefulPartitionedCall/RealESRGAN_1/conv_20_1/convolution/ReadVariableOp",
        "op": "Const",
        "attr": {
          "value": {
            "tensor": {
              "dtype": "DT_FLOAT",
              "tensorShape": {
                "dim": [
                  {
                    "size": "3"
                  },
                  {
                    "size": "3"
                  },
                  {
                    "size": "64"
                  },
                  {
                    "size": "64"
                  }
                ]
              }
            }
          },
          "dtype": {
            "type": "DT_FLOAT"
          }
        }
      },
      {
        "name": "StatefulPartitionedCall/RealESRGAN_1/conv_20_1/Reshape",
        "op": "Const",
        "attr": {
          "value": {
            "tensor": {
              "dtype": "DT_FLOAT",
              "tensorShape": {
                "dim": [
                  {
                    "size": "1"
                  },
                  {
                    "size": "1"
                  },
                  {
                    "size": "1"
                  },
                  {
                    "size": "64"
                  }
                ]
              }
            }
          },
          "dtype": {
            "type": "DT_FLOAT"
          }
        }
      },
      {
        "name": "StatefulPartitionedCall/RealESRGAN_1/conv_22_1/convolution/ReadVariableOp",
        "op": "Const",
        "attr": {
          "value": {
            "tensor": {
              "dtype": "DT_FLOAT",
              "tensorShape": {
                "dim": [
                  {
                    "size": "3"
                  },
                  {
                    "size": "3"
                  },
                  {
                    "size": "64"
                  },
                  {
                    "size": "64"
                  }
                ]
              }
            }
          },
          "dtype": {
            "type": "DT_FLOAT"
          }
        }
      },
      {
        "name": "StatefulPartitionedCall/RealESRGAN_1/conv_22_1/Reshape",
        "op": "Const",
        "attr": {
          "value": {
            "tensor": {
              "dtype": "DT_FLOAT",
              "tensorShape": {
                "dim": [
                  {
                    "size": "1"
                  },
                  {
                    "size": "1"
                  },
                  {
                    "size": "1"
                  },
                  {
                    "size": "64"
                  }
                ]
              }
            }
          },
          "dtype": {
            "type": "DT_FLOAT"
          }
        }
      },
      {
        "name": "StatefulPartitionedCall/RealESRGAN_1/conv_24_1/convolution/ReadVariableOp",
        "op": "Const",
        "attr": {
          "value": {
            "tensor": {
              "dtype": "DT_FLOAT",
              "tensorShape": {
                "dim": [
                  {
                    "size": "3"
                  },
                  {
                    "size": "3"
                  },
                  {
                    "size": "64"
                  },
                  {
                    "size": "64"
                  }
                ]
              }
            }
          },
          "dtype": {
            "type": "DT_FLOAT"
          }
        }
      },
      {
        "name": "StatefulPartitionedCall/RealESRGAN_1/conv_24_1/Reshape",
        "op": "Const",
        "attr": {
          "value": {
            "tensor": {
              "dtype": "DT_FLOAT",
              "tensorShape": {
                "dim": [
                  {
                    "size": "1"
                  },
                  {
                    "size": "1"
                  },
                  {
                    "size": "1"
                  },
                  {
                    "size": "64"
                  }
                ]
              }
            }
          },
          "dtype": {
            "type": "DT_FLOAT"
          }
        }
      },
      {
        "name": "StatefulPartitionedCall/RealESRGAN_1/conv_26_1/convolution/ReadVariableOp",
        "op": "Const",
        "attr": {
          "value": {
            "tensor": {
              "dtype": "DT_FLOAT",
              "tensorShape": {
                "dim": [
                  {
                    "size": "3"
                  },
                  {
                    "size": "3"
                  },
                  {
                    "size": "64"
                  },
                  {
                    "size": "64"
                  }
                ]
              }
            }
          },
          "dtype": {
            "type": "DT_FLOAT"
          }
        }
      },
      {
        "name": "StatefulPartitionedCall/RealESRGAN_1/conv_26_1/Reshape",
        "op": "Const",
        "attr": {
          "value": {
            "tensor": {
              "dtype": "DT_FLOAT",
              "tensorShape": {
                "dim": [
                  {
                    "size": "1"
                  },
                  {
                    "size": "1"
                  },
                  {
                    "size": "1"
                  },
                  {
                    "size": "64"
                  }
                ]
              }
            }
          },
          "dtype": {
            "type": "DT_FLOAT"
          }
        }
      },
      {
        "name": "StatefulPartitionedCall/RealESRGAN_1/conv_28_1/convolution/ReadVariableOp",
        "op": "Const",
        "attr": {
          "value": {
            "tensor": {
              "dtype": "DT_FLOAT",
              "tensorShape": {
                "dim": [
                  {
                    "size": "3"
                  },
                  {
                    "size": "3"
                  },
                  {
                    "size": "64"
                  },
                  {
                    "size": "64"
                  }
                ]
              }
            }
          },
          "dtype": {
            "type": "DT_FLOAT"
          }
        }
      },
      {
        "name": "StatefulPartitionedCall/RealESRGAN_1/conv_28_1/Reshape",
        "op": "Const",
        "attr": {
          "value": {
            "tensor": {
              "dtype": "DT_FLOAT",
              "tensorShape": {
                "dim": [
                  {
                    "size": "1"
                  },
                  {
                    "size": "1"
                  },
                  {
                    "size": "1"
                  },
                  {
                    "size": "64"
                  }
                ]
              }
            }
          },
          "dtype": {
            "type": "DT_FLOAT"
          }
        }
      },
      {
        "name": "StatefulPartitionedCall/RealESRGAN_1/conv_30_1/convolution/ReadVariableOp",
        "op": "Const",
        "attr": {
          "value": {
            "tensor": {
              "dtype": "DT_FLOAT",
              "tensorShape": {
                "dim": [
                  {
                    "size": "3"
                  },
                  {
                    "size": "3"
                  },
                  {
                    "size": "64"
                  },
                  {
                    "size": "64"
                  }
                ]
              }
            }
          },
          "dtype": {
            "type": "DT_FLOAT"
          }
        }
      },
      {
        "name": "StatefulPartitionedCall/RealESRGAN_1/conv_30_1/Reshape",
        "op": "Const",
        "attr": {
          "value": {
            "tensor": {
              "dtype": "DT_FLOAT",
              "tensorShape": {
                "dim": [
                  {
                    "size": "1"
                  },
                  {
                    "size": "1"
                  },
                  {
                    "size": "1"
                  },
                  {
                    "size": "64"
                  }
                ]
              }
            }
          },
          "dtype": {
            "type": "DT_FLOAT"
          }
        }
      },
      {
        "name": "StatefulPartitionedCall/RealESRGAN_1/conv_32_1/convolution/ReadVariableOp",
        "op": "Const",
        "attr": {
          "value": {
            "tensor": {
              "dtype": "DT_FLOAT",
              "tensorShape": {
                "dim": [
                  {
                    "size": "3"
                  },
                  {
                    "size": "3"
                  },
                  {
                    "size": "64"
                  },
                  {
                    "size": "64"
                  }
                ]
              }
            }
          },
          "dtype": {
            "type": "DT_FLOAT"
          }
        }
      },
      {
        "name": "StatefulPartitionedCall/RealESRGAN_1/conv_32_1/Reshape",
        "op": "Const",
        "attr": {
          "value": {
            "tensor": {
              "dtype": "DT_FLOAT",
              "tensorShape": {
                "dim": [
                  {
                    "size": "1"
                  },
                  {
                    "size": "1"
                  },
                  {
                    "size": "1"
                  },
                  {
                    "size": "64"
                  }
                ]
              }
            }
          },
          "dtype": {
            "type": "DT_FLOAT"
          }
        }
      },
      {
        "name": "StatefulPartitionedCall/RealESRGAN_1/conv_34_1/convolution/ReadVariableOp",
        "op": "Const",
        "attr": {
          "value": {
            "tensor": {
              "dtype": "DT_FLOAT",
              "tensorShape": {
                "dim": [
                  {
                    "size": "3"
                  },
                  {
                    "size": "3"
                  },
                  {
                    "size": "64"
                  },
                  {
                    "size": "48"
                  }
                ]
              }
            }
          },
          "dtype": {
            "type": "DT_FLOAT"
          }
        }
      },
      {
        "name": "StatefulPartitionedCall/RealESRGAN_1/conv_34_1/add",
        "op": "Const",
        "attr": {
          "value": {
            "tensor": {
              "dtype": "DT_FLOAT",
              "tensorShape": {
                "dim": [
                  {
                    "size": "1"
                  },
                  {
                    "size": "1"
                  },
                  {
                    "size": "1"
                  },
                  {
                    "size": "48"
                  }
                ]
              }
            }
          },
          "dtype": {
            "type": "DT_FLOAT"
          }
        }
      },
      {
        "name": "StatefulPartitionedCall/RealESRGAN_1/pixel_shuffle_1/strided_slice_3/stack",
        "op": "Const",
        "attr": {
          "value": {
            "tensor": {
              "dtype": "DT_INT32",
              "tensorShape": {
                "dim": [
                  {
                    "size": "1"
                  }
                ]
              }
            }
          },
          "dtype": {
            "type": "DT_INT32"
          }
        }
      },
      {
        "name": "StatefulPartitionedCall/RealESRGAN_1/pixel_shuffle_1/strided_slice_3/stack_1",
        "op": "Const",
        "attr": {
          "value": {
            "tensor": {
              "dtype": "DT_INT32",
              "tensorShape": {
                "dim": [
                  {
                    "size": "1"
                  }
                ]
              }
            }
          },
          "dtype": {
            "type": "DT_INT32"
          }
        }
      },
      {
        "name": "StatefulPartitionedCall/RealESRGAN_1/pixel_shuffle_1/strided_slice_3/stack_2",
        "op": "Const",
        "attr": {
          "value": {
            "tensor": {
              "dtype": "DT_INT32",
              "tensorShape": {
                "dim": [
                  {
                    "size": "1"
                  }
                ]
              }
            }
          },
          "dtype": {
            "type": "DT_INT32"
          }
        }
      },
      {
        "name": "StatefulPartitionedCall/RealESRGAN_1/pixel_shuffle_1/floordiv/y",
        "op": "Const",
        "attr": {
          "value": {
            "tensor": {
              "dtype": "DT_INT32",
              "tensorShape": {}
            }
          },
          "dtype": {
            "type": "DT_INT32"
          }
        }
      },
      {
        "name": "StatefulPartitionedCall/RealESRGAN_1/denormalize_1/mul/y",
        "op": "Const",
        "attr": {
          "value": {
            "tensor": {
              "dtype": "DT_FLOAT",
              "tensorShape": {}
            }
          },
          "dtype": {
            "type": "DT_FLOAT"
          }
        }
      },
      {
        "name": "StatefulPartitionedCall/RealESRGAN_1/output_tensor_1/clip_by_value/Minimum/y",
        "op": "Const",
        "attr": {
          "value": {
            "tensor": {
              "dtype": "DT_FLOAT",
              "tensorShape": {}
            }
          },
          "dtype": {
            "type": "DT_FLOAT"
          }
        }
      },
      {
        "name": "StatefulPartitionedCall/RealESRGAN_1/output_tensor_1/clip_by_value/y",
        "op": "Const",
        "attr": {
          "value": {
            "tensor": {
              "dtype": "DT_FLOAT",
              "tensorShape": {}
            }
          },
          "dtype": {
            "type": "DT_FLOAT"
          }
        }
      },
      {
        "name": "input_tensor",
        "op": "Placeholder",
        "attr": {
          "shape": {
            "shape": {
              "dim": [
                {
                  "size": "-1"
                },
                {
                  "size": "-1"
                },
                {
                  "size": "-1"
                },
                {
                  "size": "3"
                }
              ]
            }
          },
          "dtype": {
            "type": "DT_FLOAT"
          }
        }
      },
      {
        "name": "StatefulPartitionedCall/RealESRGAN_1/conv_0_1/add",
        "op": "_FusedConv2D",
        "input": [
          "input_tensor",
          "StatefulPartitionedCall/RealESRGAN_1/conv_0_1/convolution/ArithmeticOptimizer/FoldMultiplyIntoConv_scaled_StatefulPartitionedCall/RealESRGAN_1/conv_0_1/convolution_ReadVariableOp",
          "StatefulPartitionedCall/RealESRGAN_1/conv_0_1/Reshape",
          "StatefulPartitionedCall/RealESRGAN_1/prelu_1_1/Neg"
        ],
        "device": "/device:CPU:0",
        "attr": {
          "num_host_args": {
            "i": "0"
          },
          "data_format": {
            "s": "TkhXQw=="
          },
          "filter_format": {
            "s": "SFdJTw=="
          },
          "strides": {
            "list": {
              "i": [
                "1",
                "1",
                "1",
                "1"
              ]
            }
          },
          "num_args": {
            "i": "2"
          },
          "fused_ops": {
            "list": {
              "s": [
                "Qmlhc0FkZA==",
                "UHJlbHU="
              ]
            }
          },
          "TArgs": {
            "list": {
              "type": [
                "DT_FLOAT"
              ]
            }
          },
          "padding": {
            "s": "U0FNRQ=="
          },
          "use_cudnn_on_gpu": {
            "b": true
          },
          "leakyrelu_alpha": {
            "f": 0.2
          },
          "epsilon": {
            "f": 0.0
          },
          "T": {
            "type": "DT_FLOAT"
          },
          "explicit_paddings": {
            "list": {}
          },
          "dilations": {
            "list": {
              "i": [
                "1",
                "1",
                "1",
                "1"
              ]
            }
          }
        }
      },
      {
        "name": "StatefulPartitionedCall/RealESRGAN_1/conv_2_1/add",
        "op": "_FusedConv2D",
        "input": [
          "StatefulPartitionedCall/RealESRGAN_1/conv_0_1/add",
          "StatefulPartitionedCall/RealESRGAN_1/conv_2_1/convolution/ReadVariableOp",
          "StatefulPartitionedCall/RealESRGAN_1/conv_2_1/Reshape",
          "StatefulPartitionedCall/RealESRGAN_1/prelu_3_1/Neg"
        ],
        "device": "/device:CPU:0",
        "attr": {
          "num_host_args": {
            "i": "0"
          },
          "data_format": {
            "s": "TkhXQw=="
          },
          "filter_format": {
            "s": "SFdJTw=="
          },
          "fused_ops": {
            "list": {
              "s": [
                "Qmlhc0FkZA==",
                "UHJlbHU="
              ]
            }
          },
          "num_args": {
            "i": "2"
          },
          "strides": {
            "list": {
              "i": [
                "1",
                "1",
                "1",
                "1"
              ]
            }
          },
          "TArgs": {
            "list": {
              "type": [
                "DT_FLOAT"
              ]
            }
          },
          "padding": {
            "s": "U0FNRQ=="
          },
          "use_cudnn_on_gpu": {
            "b": true
          },
          "leakyrelu_alpha": {
            "f": 0.2
          },
          "epsilon": {
            "f": 0.0
          },
          "T": {
            "type": "DT_FLOAT"
          },
          "explicit_paddings": {
            "list": {}
          },
          "dilations": {
            "list": {
              "i": [
                "1",
                "1",
                "1",
                "1"
              ]
            }
          }
        }
      },
      {
        "name": "StatefulPartitionedCall/RealESRGAN_1/conv_4_1/add",
        "op": "_FusedConv2D",
        "input": [
          "StatefulPartitionedCall/RealESRGAN_1/conv_2_1/add",
          "StatefulPartitionedCall/RealESRGAN_1/conv_4_1/convolution/ReadVariableOp",
          "StatefulPartitionedCall/RealESRGAN_1/conv_4_1/Reshape",
          "StatefulPartitionedCall/RealESRGAN_1/prelu_5_1/Neg"
        ],
        "device": "/device:CPU:0",
        "attr": {
          "num_host_args": {
            "i": "0"
          },
          "data_format": {
            "s": "TkhXQw=="
          },
          "filter_format": {
            "s": "SFdJTw=="
          },
          "strides": {
            "list": {
              "i": [
                "1",
                "1",
                "1",
                "1"
              ]
            }
          },
          "num_args": {
            "i": "2"
          },
          "fused_ops": {
            "list": {
              "s": [
                "Qmlhc0FkZA==",
                "UHJlbHU="
              ]
            }
          },
          "TArgs": {
            "list": {
              "type": [
                "DT_FLOAT"
              ]
            }
          },
          "padding": {
            "s": "U0FNRQ=="
          },
          "use_cudnn_on_gpu": {
            "b": true
          },
          "leakyrelu_alpha": {
            "f": 0.2
          },
          "epsilon": {
            "f": 0.0
          },
          "T": {
            "type": "DT_FLOAT"
          },
          "explicit_paddings": {
            "list": {}
          },
          "dilations": {
            "list": {
              "i": [
                "1",
                "1",
                "1",
                "1"
              ]
            }
          }
        }
      },
      {
        "name": "StatefulPartitionedCall/RealESRGAN_1/conv_6_1/add",
        "op": "_FusedConv2D",
        "input": [
          "StatefulPartitionedCall/RealESRGAN_1/conv_4_1/add",
          "StatefulPartitionedCall/RealESRGAN_1/conv_6_1/convolution/ReadVariableOp",
          "StatefulPartitionedCall/RealESRGAN_1/conv_6_1/Reshape",
          "StatefulPartitionedCall/RealESRGAN_1/prelu_7_1/Neg"
        ],
        "device": "/device:CPU:0",
        "attr": {
          "num_host_args": {
            "i": "0"
          },
          "data_format": {
            "s": "TkhXQw=="
          },
          "filter_format": {
            "s": "SFdJTw=="
          },
          "strides": {
            "list": {
              "i": [
                "1",
                "1",
                "1",
                "1"
              ]
            }
          },
          "num_args": {
            "i": "2"
          },
          "fused_ops": {
            "list": {
              "s": [
                "Qmlhc0FkZA==",
                "UHJlbHU="
              ]
            }
          },
          "TArgs": {
            "list": {
              "type": [
                "DT_FLOAT"
              ]
            }
          },
          "padding": {
            "s": "U0FNRQ=="
          },
          "use_cudnn_on_gpu": {
            "b": true
          },
          "leakyrelu_alpha": {
            "f": 0.2
          },
          "epsilon": {
            "f": 0.0
          },
          "T": {
            "type": "DT_FLOAT"
          },
          "explicit_paddings": {
            "list": {}
          },
          "dilations": {
            "list": {
              "i": [
                "1",
                "1",
                "1",
                "1"
              ]
            }
          }
        }
      },
      {
        "name": "StatefulPartitionedCall/RealESRGAN_1/conv_8_1/add",
        "op": "_FusedConv2D",
        "input": [
          "StatefulPartitionedCall/RealESRGAN_1/conv_6_1/add",
          "StatefulPartitionedCall/RealESRGAN_1/conv_8_1/convolution/ReadVariableOp",
          "StatefulPartitionedCall/RealESRGAN_1/conv_8_1/Reshape",
          "StatefulPartitionedCall/RealESRGAN_1/prelu_9_1/Neg"
        ],
        "device": "/device:CPU:0",
        "attr": {
          "num_host_args": {
            "i": "0"
          },
          "data_format": {
            "s": "TkhXQw=="
          },
          "filter_format": {
            "s": "SFdJTw=="
          },
          "fused_ops": {
            "list": {
              "s": [
                "Qmlhc0FkZA==",
                "UHJlbHU="
              ]
            }
          },
          "num_args": {
            "i": "2"
          },
          "strides": {
            "list": {
              "i": [
                "1",
                "1",
                "1",
                "1"
              ]
            }
          },
          "TArgs": {
            "list": {
              "type": [
                "DT_FLOAT"
              ]
            }
          },
          "padding": {
            "s": "U0FNRQ=="
          },
          "use_cudnn_on_gpu": {
            "b": true
          },
          "leakyrelu_alpha": {
            "f": 0.2
          },
          "epsilon": {
            "f": 0.0
          },
          "T": {
            "type": "DT_FLOAT"
          },
          "explicit_paddings": {
            "list": {}
          },
          "dilations": {
            "list": {
              "i": [
                "1",
                "1",
                "1",
                "1"
              ]
            }
          }
        }
      },
      {
        "name": "StatefulPartitionedCall/RealESRGAN_1/conv_10_1/add",
        "op": "_FusedConv2D",
        "input": [
          "StatefulPartitionedCall/RealESRGAN_1/conv_8_1/add",
          "StatefulPartitionedCall/RealESRGAN_1/conv_10_1/convolution/ReadVariableOp",
          "StatefulPartitionedCall/RealESRGAN_1/conv_10_1/Reshape",
          "StatefulPartitionedCall/RealESRGAN_1/prelu_11_1/Neg"
        ],
        "device": "/device:CPU:0",
        "attr": {
          "num_host_args": {
            "i": "0"
          },
          "data_format": {
            "s": "TkhXQw=="
          },
          "filter_format": {
            "s": "SFdJTw=="
          },
          "strides": {
            "list": {
              "i": [
                "1",
                "1",
                "1",
                "1"
              ]
            }
          },
          "num_args": {
            "i": "2"
          },
          "fused_ops": {
            "list": {
              "s": [
                "Qmlhc0FkZA==",
                "UHJlbHU="
              ]
            }
          },
          "TArgs": {
            "list": {
              "type": [
                "DT_FLOAT"
              ]
            }
          },
          "padding": {
            "s": "U0FNRQ=="
          },
          "use_cudnn_on_gpu": {
            "b": true
          },
          "leakyrelu_alpha": {
            "f": 0.2
          },
          "epsilon": {
            "f": 0.0
          },
          "T": {
            "type": "DT_FLOAT"
          },
          "explicit_paddings": {
            "list": {}
          },
          "dilations": {
            "list": {
              "i": [
                "1",
                "1",
                "1",
                "1"
              ]
            }
          }
        }
      },
      {
        "name": "StatefulPartitionedCall/RealESRGAN_1/conv_12_1/add",
        "op": "_FusedConv2D",
        "input": [
          "StatefulPartitionedCall/RealESRGAN_1/conv_10_1/add",
          "StatefulPartitionedCall/RealESRGAN_1/conv_12_1/convolution/ReadVariableOp",
          "StatefulPartitionedCall/RealESRGAN_1/conv_12_1/Reshape",
          "StatefulPartitionedCall/RealESRGAN_1/prelu_13_1/Neg"
        ],
        "device": "/device:CPU:0",
        "attr": {
          "num_host_args": {
            "i": "0"
          },
          "data_format": {
            "s": "TkhXQw=="
          },
          "filter_format": {
            "s": "SFdJTw=="
          },
          "fused_ops": {
            "list": {
              "s": [
                "Qmlhc0FkZA==",
                "UHJlbHU="
              ]
            }
          },
          "num_args": {
            "i": "2"
          },
          "strides": {
            "list": {
              "i": [
                "1",
                "1",
                "1",
                "1"
              ]
            }
          },
          "TArgs": {
            "list": {
              "type": [
                "DT_FLOAT"
              ]
            }
          },
          "padding": {
            "s": "U0FNRQ=="
          },
          "use_cudnn_on_gpu": {
            "b": true
          },
          "leakyrelu_alpha": {
            "f": 0.2
          },
          "epsilon": {
            "f": 0.0
          },
          "T": {
            "type": "DT_FLOAT"
          },
          "explicit_paddings": {
            "list": {}
          },
          "dilations": {
            "list": {
              "i": [
                "1",
                "1",
                "1",
                "1"
              ]
            }
          }
        }
      },
      {
        "name": "StatefulPartitionedCall/RealESRGAN_1/conv_14_1/add",
        "op": "_FusedConv2D",
        "input": [
          "StatefulPartitionedCall/RealESRGAN_1/conv_12_1/add",
          "StatefulPartitionedCall/RealESRGAN_1/conv_14_1/convolution/ReadVariableOp",
          "StatefulPartitionedCall/RealESRGAN_1/conv_14_1/Reshape",
          "StatefulPartitionedCall/RealESRGAN_1/prelu_15_1/Neg"
        ],
        "device": "/device:CPU:0",
        "attr": {
          "num_host_args": {
            "i": "0"
          },
          "data_format": {
            "s": "TkhXQw=="
          },
          "filter_format": {
            "s": "SFdJTw=="
          },
          "strides": {
            "list": {
              "i": [
                "1",
                "1",
                "1",
                "1"
              ]
            }
          },
          "num_args": {
            "i": "2"
          },
          "fused_ops": {
            "list": {
              "s": [
                "Qmlhc0FkZA==",
                "UHJlbHU="
              ]
            }
          },
          "TArgs": {
            "list": {
              "type": [
                "DT_FLOAT"
              ]
            }
          },
          "padding": {
            "s": "U0FNRQ=="
          },
          "use_cudnn_on_gpu": {
            "b": true
          },
          "leakyrelu_alpha": {
            "f": 0.2
          },
          "epsilon": {
            "f": 0.0
          },
          "T": {
            "type": "DT_FLOAT"
          },
          "explicit_paddings": {
            "list": {}
          },
          "dilations": {
            "list": {
              "i": [
                "1",
                "1",
                "1",
                "1"
              ]
            }
          }
        }
      },
      {
        "name": "StatefulPartitionedCall/RealESRGAN_1/conv_16_1/add",
        "op": "_FusedConv2D",
        "input": [
          "StatefulPartitionedCall/RealESRGAN_1/conv_14_1/add",
          "StatefulPartitionedCall/RealESRGAN_1/conv_16_1/convolution/ReadVariableOp",
          "StatefulPartitionedCall/RealESRGAN_1/conv_16_1/Reshape",
          "StatefulPartitionedCall/RealESRGAN_1/prelu_17_1/Neg"
        ],
        "device": "/device:CPU:0",
        "attr": {
          "num_host_args": {
            "i": "0"
          },
          "data_format": {
            "s": "TkhXQw=="
          },
          "filter_format": {
            "s": "SFdJTw=="
          },
          "strides": {
            "list": {
              "i": [
                "1",
                "1",
                "1",
                "1"
              ]
            }
          },
          "num_args": {
            "i": "2"
          },
          "fused_ops": {
            "list": {
              "s": [
                "Qmlhc0FkZA==",
                "UHJlbHU="
              ]
            }
          },
          "TArgs": {
            "list": {
              "type": [
                "DT_FLOAT"
              ]
            }
          },
          "padding": {
            "s": "U0FNRQ=="
          },
          "use_cudnn_on_gpu": {
            "b": true
          },
          "leakyrelu_alpha": {
            "f": 0.2
          },
          "epsilon": {
            "f": 0.0
          },
          "T": {
            "type": "DT_FLOAT"
          },
          "explicit_paddings": {
            "list": {}
          },
          "dilations": {
            "list": {
              "i": [
                "1",
                "1",
                "1",
                "1"
              ]
            }
          }
        }
      },
      {
        "name": "StatefulPartitionedCall/RealESRGAN_1/conv_18_1/add",
        "op": "_FusedConv2D",
        "input": [
          "StatefulPartitionedCall/RealESRGAN_1/conv_16_1/add",
          "StatefulPartitionedCall/RealESRGAN_1/conv_18_1/convolution/ReadVariableOp",
          "StatefulPartitionedCall/RealESRGAN_1/conv_18_1/Reshape",
          "StatefulPartitionedCall/RealESRGAN_1/prelu_19_1/Neg"
        ],
        "device": "/device:CPU:0",
        "attr": {
          "num_host_args": {
            "i": "0"
          },
          "data_format": {
            "s": "TkhXQw=="
          },
          "filter_format": {
            "s": "SFdJTw=="
          },
          "strides": {
            "list": {
              "i": [
                "1",
                "1",
                "1",
                "1"
              ]
            }
          },
          "num_args": {
            "i": "2"
          },
          "fused_ops": {
            "list": {
              "s": [
                "Qmlhc0FkZA==",
                "UHJlbHU="
              ]
            }
          },
          "TArgs": {
            "list": {
              "type": [
                "DT_FLOAT"
              ]
            }
          },
          "padding": {
            "s": "U0FNRQ=="
          },
          "use_cudnn_on_gpu": {
            "b": true
          },
          "leakyrelu_alpha": {
            "f": 0.2
          },
          "epsilon": {
            "f": 0.0
          },
          "T": {
            "type": "DT_FLOAT"
          },
          "explicit_paddings": {
            "list": {}
          },
          "dilations": {
            "list": {
              "i": [
                "1",
                "1",
                "1",
                "1"
              ]
            }
          }
        }
      },
      {
        "name": "StatefulPartitionedCall/RealESRGAN_1/conv_20_1/add",
        "op": "_FusedConv2D",
        "input": [
          "StatefulPartitionedCall/RealESRGAN_1/conv_18_1/add",
          "StatefulPartitionedCall/RealESRGAN_1/conv_20_1/convolution/ReadVariableOp",
          "StatefulPartitionedCall/RealESRGAN_1/conv_20_1/Reshape",
          "StatefulPartitionedCall/RealESRGAN_1/prelu_21_1/Neg"
        ],
        "device": "/device:CPU:0",
        "attr": {
          "num_host_args": {
            "i": "0"
          },
          "data_format": {
            "s": "TkhXQw=="
          },
          "filter_format": {
            "s": "SFdJTw=="
          },
          "fused_ops": {
            "list": {
              "s": [
                "Qmlhc0FkZA==",
                "UHJlbHU="
              ]
            }
          },
          "num_args": {
            "i": "2"
          },
          "strides": {
            "list": {
              "i": [
                "1",
                "1",
                "1",
                "1"
              ]
            }
          },
          "TArgs": {
            "list": {
              "type": [
                "DT_FLOAT"
              ]
            }
          },
          "padding": {
            "s": "U0FNRQ=="
          },
          "use_cudnn_on_gpu": {
            "b": true
          },
          "leakyrelu_alpha": {
            "f": 0.2
          },
          "epsilon": {
            "f": 0.0
          },
          "T": {
            "type": "DT_FLOAT"
          },
          "explicit_paddings": {
            "list": {}
          },
          "dilations": {
            "list": {
              "i": [
                "1",
                "1",
                "1",
                "1"
              ]
            }
          }
        }
      },
      {
        "name": "StatefulPartitionedCall/RealESRGAN_1/conv_22_1/add",
        "op": "_FusedConv2D",
        "input": [
          "StatefulPartitionedCall/RealESRGAN_1/conv_20_1/add",
          "StatefulPartitionedCall/RealESRGAN_1/conv_22_1/convolution/ReadVariableOp",
          "StatefulPartitionedCall/RealESRGAN_1/conv_22_1/Reshape",
          "StatefulPartitionedCall/RealESRGAN_1/prelu_23_1/Neg"
        ],
        "device": "/device:CPU:0",
        "attr": {
          "num_host_args": {
            "i": "0"
          },
          "data_format": {
            "s": "TkhXQw=="
          },
          "filter_format": {
            "s": "SFdJTw=="
          },
          "fused_ops": {
            "list": {
              "s": [
                "Qmlhc0FkZA==",
                "UHJlbHU="
              ]
            }
          },
          "num_args": {
            "i": "2"
          },
          "strides": {
            "list": {
              "i": [
                "1",
                "1",
                "1",
                "1"
              ]
            }
          },
          "TArgs": {
            "list": {
              "type": [
                "DT_FLOAT"
              ]
            }
          },
          "padding": {
            "s": "U0FNRQ=="
          },
          "use_cudnn_on_gpu": {
            "b": true
          },
          "leakyrelu_alpha": {
            "f": 0.2
          },
          "epsilon": {
            "f": 0.0
          },
          "T": {
            "type": "DT_FLOAT"
          },
          "explicit_paddings": {
            "list": {}
          },
          "dilations": {
            "list": {
              "i": [
                "1",
                "1",
                "1",
                "1"
              ]
            }
          }
        }
      },
      {
        "name": "StatefulPartitionedCall/RealESRGAN_1/conv_24_1/add",
        "op": "_FusedConv2D",
        "input": [
          "StatefulPartitionedCall/RealESRGAN_1/conv_22_1/add",
          "StatefulPartitionedCall/RealESRGAN_1/conv_24_1/convolution/ReadVariableOp",
          "StatefulPartitionedCall/RealESRGAN_1/conv_24_1/Reshape",
          "StatefulPartitionedCall/RealESRGAN_1/prelu_25_1/Neg"
        ],
        "device": "/device:CPU:0",
        "attr": {
          "num_host_args": {
            "i": "0"
          },
          "data_format": {
            "s": "TkhXQw=="
          },
          "filter_format": {
            "s": "SFdJTw=="
          },
          "strides": {
            "list": {
              "i": [
                "1",
                "1",
                "1",
                "1"
              ]
            }
          },
          "num_args": {
            "i": "2"
          },
          "fused_ops": {
            "list": {
              "s": [
                "Qmlhc0FkZA==",
                "UHJlbHU="
              ]
            }
          },
          "TArgs": {
            "list": {
              "type": [
                "DT_FLOAT"
              ]
            }
          },
          "padding": {
            "s": "U0FNRQ=="
          },
          "use_cudnn_on_gpu": {
            "b": true
          },
          "leakyrelu_alpha": {
            "f": 0.2
          },
          "epsilon": {
            "f": 0.0
          },
          "T": {
            "type": "DT_FLOAT"
          },
          "explicit_paddings": {
            "list": {}
          },
          "dilations": {
            "list": {
              "i": [
                "1",
                "1",
                "1",
                "1"
              ]
            }
          }
        }
      },
      {
        "name": "StatefulPartitionedCall/RealESRGAN_1/conv_26_1/add",
        "op": "_FusedConv2D",
        "input": [
          "StatefulPartitionedCall/RealESRGAN_1/conv_24_1/add",
          "StatefulPartitionedCall/RealESRGAN_1/conv_26_1/convolution/ReadVariableOp",
          "StatefulPartitionedCall/RealESRGAN_1/conv_26_1/Reshape",
          "StatefulPartitionedCall/RealESRGAN_1/prelu_27_1/Neg"
        ],
        "device": "/device:CPU:0",
        "attr": {
          "num_host_args": {
            "i": "0"
          },
          "data_format": {
            "s": "TkhXQw=="
          },
          "filter_format": {
            "s": "SFdJTw=="
          },
          "fused_ops": {
            "list": {
              "s": [
                "Qmlhc0FkZA==",
                "UHJlbHU="
              ]
            }
          },
          "num_args": {
            "i": "2"
          },
          "strides": {
            "list": {
              "i": [
                "1",
                "1",
                "1",
                "1"
              ]
            }
          },
          "TArgs": {
            "list": {
              "type": [
                "DT_FLOAT"
              ]
            }
          },
          "padding": {
            "s": "U0FNRQ=="
          },
          "use_cudnn_on_gpu": {
            "b": true
          },
          "leakyrelu_alpha": {
            "f": 0.2
          },
          "epsilon": {
            "f": 0.0
          },
          "T": {
            "type": "DT_FLOAT"
          },
          "explicit_paddings": {
            "list": {}
          },
          "dilations": {
            "list": {
              "i": [
                "1",
                "1",
                "1",
                "1"
              ]
            }
          }
        }
      },
      {
        "name": "StatefulPartitionedCall/RealESRGAN_1/conv_28_1/add",
        "op": "_FusedConv2D",
        "input": [
          "StatefulPartitionedCall/RealESRGAN_1/conv_26_1/add",
          "StatefulPartitionedCall/RealESRGAN_1/conv_28_1/convolution/ReadVariableOp",
          "StatefulPartitionedCall/RealESRGAN_1/conv_28_1/Reshape",
          "StatefulPartitionedCall/RealESRGAN_1/prelu_29_1/Neg"
        ],
        "device": "/device:CPU:0",
        "attr": {
          "num_host_args": {
            "i": "0"
          },
          "data_format": {
            "s": "TkhXQw=="
          },
          "filter_format": {
            "s": "SFdJTw=="
          },
          "fused_ops": {
            "list": {
              "s": [
                "Qmlhc0FkZA==",
                "UHJlbHU="
              ]
            }
          },
          "num_args": {
            "i": "2"
          },
          "strides": {
            "list": {
              "i": [
                "1",
                "1",
                "1",
                "1"
              ]
            }
          },
          "TArgs": {
            "list": {
              "type": [
                "DT_FLOAT"
              ]
            }
          },
          "padding": {
            "s": "U0FNRQ=="
          },
          "use_cudnn_on_gpu": {
            "b": true
          },
          "leakyrelu_alpha": {
            "f": 0.2
          },
          "epsilon": {
            "f": 0.0
          },
          "T": {
            "type": "DT_FLOAT"
          },
          "explicit_paddings": {
            "list": {}
          },
          "dilations": {
            "list": {
              "i": [
                "1",
                "1",
                "1",
                "1"
              ]
            }
          }
        }
      },
      {
        "name": "StatefulPartitionedCall/RealESRGAN_1/conv_30_1/add",
        "op": "_FusedConv2D",
        "input": [
          "StatefulPartitionedCall/RealESRGAN_1/conv_28_1/add",
          "StatefulPartitionedCall/RealESRGAN_1/conv_30_1/convolution/ReadVariableOp",
          "StatefulPartitionedCall/RealESRGAN_1/conv_30_1/Reshape",
          "StatefulPartitionedCall/RealESRGAN_1/prelu_31_1/Neg"
        ],
        "device": "/device:CPU:0",
        "attr": {
          "num_host_args": {
            "i": "0"
          },
          "data_format": {
            "s": "TkhXQw=="
          },
          "filter_format": {
            "s": "SFdJTw=="
          },
          "fused_ops": {
            "list": {
              "s": [
                "Qmlhc0FkZA==",
                "UHJlbHU="
              ]
            }
          },
          "num_args": {
            "i": "2"
          },
          "strides": {
            "list": {
              "i": [
                "1",
                "1",
                "1",
                "1"
              ]
            }
          },
          "TArgs": {
            "list": {
              "type": [
                "DT_FLOAT"
              ]
            }
          },
          "padding": {
            "s": "U0FNRQ=="
          },
          "use_cudnn_on_gpu": {
            "b": true
          },
          "leakyrelu_alpha": {
            "f": 0.2
          },
          "epsilon": {
            "f": 0.0
          },
          "T": {
            "type": "DT_FLOAT"
          },
          "explicit_paddings": {
            "list": {}
          },
          "dilations": {
            "list": {
              "i": [
                "1",
                "1",
                "1",
                "1"
              ]
            }
          }
        }
      },
      {
        "name": "StatefulPartitionedCall/RealESRGAN_1/conv_32_1/add",
        "op": "_FusedConv2D",
        "input": [
          "StatefulPartitionedCall/RealESRGAN_1/conv_30_1/add",
          "StatefulPartitionedCall/RealESRGAN_1/conv_32_1/convolution/ReadVariableOp",
          "StatefulPartitionedCall/RealESRGAN_1/conv_32_1/Reshape",
          "StatefulPartitionedCall/RealESRGAN_1/prelu_33_1/Neg"
        ],
        "device": "/device:CPU:0",
        "attr": {
          "num_host_args": {
            "i": "0"
          },
          "data_format": {
            "s": "TkhXQw=="
          },
          "filter_format": {
            "s": "SFdJTw=="
          },
          "fused_ops": {
            "list": {
              "s": [
                "Qmlhc0FkZA==",
                "UHJlbHU="
              ]
            }
          },
          "num_args": {
            "i": "2"
          },
          "strides": {
            "list": {
              "i": [
                "1",
                "1",
                "1",
                "1"
              ]
            }
          },
          "TArgs": {
            "list": {
              "type": [
                "DT_FLOAT"
              ]
            }
          },
          "padding": {
            "s": "U0FNRQ=="
          },
          "use_cudnn_on_gpu": {
            "b": true
          },
          "leakyrelu_alpha": {
            "f": 0.2
          },
          "epsilon": {
            "f": 0.0
          },
          "T": {
            "type": "DT_FLOAT"
          },
          "explicit_paddings": {
            "list": {}
          },
          "dilations": {
            "list": {
              "i": [
                "1",
                "1",
                "1",
                "1"
              ]
            }
          }
        }
      },
      {
        "name": "StatefulPartitionedCall/RealESRGAN_1/scale_correction_1/add",
        "op": "_FusedConv2D",
        "input": [
          "StatefulPartitionedCall/RealESRGAN_1/conv_32_1/add",
          "StatefulPartitionedCall/RealESRGAN_1/conv_34_1/convolution/ReadVariableOp",
          "StatefulPartitionedCall/RealESRGAN_1/conv_34_1/add"
        ],
        "device": "/device:CPU:0",
        "attr": {
          "num_host_args": {
            "i": "0"
          },
          "data_format": {
            "s": "TkhXQw=="
          },
          "filter_format": {
            "s": "SFdJTw=="
          },
          "fused_ops": {
            "list": {
              "s": [
                "Qmlhc0FkZA=="
              ]
            }
          },
          "num_args": {
            "i": "1"
          },
          "strides": {
            "list": {
              "i": [
                "1",
                "1",
                "1",
                "1"
              ]
            }
          },
          "TArgs": {
            "list": {
              "type": [
                "DT_FLOAT"
              ]
            }
          },
          "padding": {
            "s": "U0FNRQ=="
          },
          "use_cudnn_on_gpu": {
            "b": true
          },
          "leakyrelu_alpha": {
            "f": 0.2
          },
          "epsilon": {
            "f": 0.0
          },
          "T": {
            "type": "DT_FLOAT"
          },
          "explicit_paddings": {
            "list": {}
          },
          "dilations": {
            "list": {
              "i": [
                "1",
                "1",
                "1",
                "1"
              ]
            }
          }
        }
      },
      {
        "name": "StatefulPartitionedCall/RealESRGAN_1/pixel_shuffle_1/Shape_1",
        "op": "Shape",
        "input": [
          "StatefulPartitionedCall/RealESRGAN_1/scale_correction_1/add"
        ],
        "attr": {
          "T": {
            "type": "DT_FLOAT"
          },
          "out_type": {
            "type": "DT_INT32"
          }
        },
        "experimentalType": {
          "typeId": "TFT_PRODUCT",
          "args": [
            {
              "typeId": "TFT_SHAPE_TENSOR",
              "args": [
                {
                  "typeId": "TFT_INT32"
                }
              ]
            }
          ]
        }
      },
      {
        "name": "StatefulPartitionedCall/RealESRGAN_1/pixel_shuffle_1/Shape_2",
        "op": "Shape",
        "input": [
          "StatefulPartitionedCall/RealESRGAN_1/scale_correction_1/add"
        ],
        "attr": {
          "T": {
            "type": "DT_FLOAT"
          },
          "out_type": {
            "type": "DT_INT32"
          }
        },
        "experimentalType": {
          "typeId": "TFT_PRODUCT",
          "args": [
            {
              "typeId": "TFT_SHAPE_TENSOR",
              "args": [
                {
                  "typeId": "TFT_INT32"
                }
              ]
            }
          ]
        }
      },
      {
        "name": "StatefulPartitionedCall/RealESRGAN_1/pixel_shuffle_1/Shape_3",
        "op": "Shape",
        "input": [
          "StatefulPartitionedCall/RealESRGAN_1/scale_correction_1/add"
        ],
        "attr": {
          "T": {
            "type": "DT_FLOAT"
          },
          "out_type": {
            "type": "DT_INT32"
          }
        },
        "experimentalType": {
          "typeId": "TFT_PRODUCT",
          "args": [
            {
              "typeId": "TFT_SHAPE_TENSOR",
              "args": [
                {
                  "typeId": "TFT_INT32"
                }
              ]
            }
          ]
        }
      },
      {
        "name": "StatefulPartitionedCall/RealESRGAN_1/pixel_shuffle_1/Shape",
        "op": "Shape",
        "input": [
          "StatefulPartitionedCall/RealESRGAN_1/scale_correction_1/add"
        ],
        "attr": {
          "T": {
            "type": "DT_FLOAT"
          },
          "out_type": {
            "type": "DT_INT32"
          }
        },
        "experimentalType": {
          "typeId": "TFT_PRODUCT",
          "args": [
            {
              "typeId": "TFT_SHAPE_TENSOR",
              "args": [
                {
                  "typeId": "TFT_INT32"
                }
              ]
            }
          ]
        }
      },
      {
        "name": "StatefulPartitionedCall/RealESRGAN_1/pixel_shuffle_1/strided_slice_1",
        "op": "StridedSlice",
        "input": [
          "StatefulPartitionedCall/RealESRGAN_1/pixel_shuffle_1/Shape_1",
          "StatefulPartitionedCall/RealESRGAN_1/pixel_shuffle_1/strided_slice_1/stack",
          "StatefulPartitionedCall/RealESRGAN_1/pixel_shuffle_1/strided_slice_1/stack_1",
          "StatefulPartitionedCall/RealESRGAN_1/pixel_shuffle_1/strided_slice_1/stack_2"
        ],
        "attr": {
          "shrink_axis_mask": {
            "i": "1"
          },
          "new_axis_mask": {
            "i": "0"
          },
          "Index": {
            "type": "DT_INT32"
          },
          "begin_mask": {
            "i": "0"
          },
          "T": {
            "type": "DT_INT32"
          },
          "end_mask": {
            "i": "0"
          },
          "ellipsis_mask": {
            "i": "0"
          }
        }
      },
      {
        "name": "StatefulPartitionedCall/RealESRGAN_1/pixel_shuffle_1/strided_slice_2",
        "op": "StridedSlice",
        "input": [
          "StatefulPartitionedCall/RealESRGAN_1/pixel_shuffle_1/Shape_2",
          "StatefulPartitionedCall/RealESRGAN_1/pixel_shuffle_1/strided_slice_2/stack",
          "StatefulPartitionedCall/RealESRGAN_1/pixel_shuffle_1/strided_slice_2/stack_1",
          "StatefulPartitionedCall/RealESRGAN_1/pixel_shuffle_1/strided_slice_2/stack_2"
        ],
        "attr": {
          "shrink_axis_mask": {
            "i": "1"
          },
          "new_axis_mask": {
            "i": "0"
          },
          "Index": {
            "type": "DT_INT32"
          },
          "begin_mask": {
            "i": "0"
          },
          "T": {
            "type": "DT_INT32"
          },
          "end_mask": {
            "i": "0"
          },
          "ellipsis_mask": {
            "i": "0"
          }
        }
      },
      {
        "name": "StatefulPartitionedCall/RealESRGAN_1/pixel_shuffle_1/strided_slice_3",
        "op": "StridedSlice",
        "input": [
          "StatefulPartitionedCall/RealESRGAN_1/pixel_shuffle_1/Shape_3",
          "StatefulPartitionedCall/RealESRGAN_1/pixel_shuffle_1/strided_slice_3/stack",
          "StatefulPartitionedCall/RealESRGAN_1/pixel_shuffle_1/strided_slice_3/stack_1",
          "StatefulPartitionedCall/RealESRGAN_1/pixel_shuffle_1/strided_slice_3/stack_2"
        ],
        "attr": {
          "shrink_axis_mask": {
            "i": "1"
          },
          "new_axis_mask": {
            "i": "0"
          },
          "Index": {
            "type": "DT_INT32"
          },
          "begin_mask": {
            "i": "0"
          },
          "T": {
            "type": "DT_INT32"
          },
          "end_mask": {
            "i": "0"
          },
          "ellipsis_mask": {
            "i": "0"
          }
        }
      },
      {
        "name": "StatefulPartitionedCall/RealESRGAN_1/pixel_shuffle_1/strided_slice",
        "op": "StridedSlice",
        "input": [
          "StatefulPartitionedCall/RealESRGAN_1/pixel_shuffle_1/Shape",
          "StatefulPartitionedCall/RealESRGAN_1/pixel_shuffle_1/strided_slice/stack",
          "StatefulPartitionedCall/RealESRGAN_1/pixel_shuffle_1/strided_slice/stack_1",
          "StatefulPartitionedCall/RealESRGAN_1/pixel_shuffle_1/strided_slice/stack_2"
        ],
        "attr": {
          "shrink_axis_mask": {
            "i": "1"
          },
          "Index": {
            "type": "DT_INT32"
          },
          "new_axis_mask": {
            "i": "0"
          },
          "begin_mask": {
            "i": "0"
          },
          "end_mask": {
            "i": "0"
          },
          "T": {
            "type": "DT_INT32"
          },
          "ellipsis_mask": {
            "i": "0"
          }
        }
      },
      {
        "name": "StatefulPartitionedCall/RealESRGAN_1/pixel_shuffle_1/mul",
        "op": "Mul",
        "input": [
          "StatefulPartitionedCall/RealESRGAN_1/pixel_shuffle_1/strided_slice_1",
          "StatefulPartitionedCall/RealESRGAN_1/pixel_shuffle_1/mul/y"
        ],
        "attr": {
          "T": {
            "type": "DT_INT32"
          }
        }
      },
      {
        "name": "StatefulPartitionedCall/RealESRGAN_1/pixel_shuffle_1/mul_1",
        "op": "Mul",
        "input": [
          "StatefulPartitionedCall/RealESRGAN_1/pixel_shuffle_1/strided_slice_2",
          "StatefulPartitionedCall/RealESRGAN_1/pixel_shuffle_1/mul_1/y"
        ],
        "attr": {
          "T": {
            "type": "DT_INT32"
          }
        }
      },
      {
        "name": "StatefulPartitionedCall/RealESRGAN_1/pixel_shuffle_1/floordiv",
        "op": "FloorDiv",
        "input": [
          "StatefulPartitionedCall/RealESRGAN_1/pixel_shuffle_1/strided_slice_3",
          "StatefulPartitionedCall/RealESRGAN_1/pixel_shuffle_1/floordiv/y"
        ],
        "attr": {
          "T": {
            "type": "DT_INT32"
          }
        }
      },
      {
        "name": "StatefulPartitionedCall/RealESRGAN_1/pixel_shuffle_1/Reshape/shape",
        "op": "Pack",
        "input": [
          "StatefulPartitionedCall/RealESRGAN_1/pixel_shuffle_1/strided_slice",
          "StatefulPartitionedCall/RealESRGAN_1/pixel_shuffle_1/strided_slice_1",
          "StatefulPartitionedCall/RealESRGAN_1/pixel_shuffle_1/strided_slice_2",
          "StatefulPartitionedCall/RealESRGAN_1/pixel_shuffle_1/Reshape/shape/3",
          "StatefulPartitionedCall/RealESRGAN_1/pixel_shuffle_1/Reshape/shape/4",
          "StatefulPartitionedCall/RealESRGAN_1/pixel_shuffle_1/floordiv"
        ],
        "attr": {
          "N": {
            "i": "6"
          },
          "axis": {
            "i": "0"
          },
          "T": {
            "type": "DT_INT32"
          }
        }
      },
      {
        "name": "StatefulPartitionedCall/RealESRGAN_1/pixel_shuffle_1/Reshape_1/shape",
        "op": "Pack",
        "input": [
          "StatefulPartitionedCall/RealESRGAN_1/pixel_shuffle_1/strided_slice",
          "StatefulPartitionedCall/RealESRGAN_1/pixel_shuffle_1/mul",
          "StatefulPartitionedCall/RealESRGAN_1/pixel_shuffle_1/mul_1",
          "StatefulPartitionedCall/RealESRGAN_1/pixel_shuffle_1/floordiv"
        ],
        "attr": {
          "N": {
            "i": "4"
          },
          "axis": {
            "i": "0"
          },
          "T": {
            "type": "DT_INT32"
          }
        }
      },
      {
        "name": "StatefulPartitionedCall/RealESRGAN_1/pixel_shuffle_1/Reshape",
        "op": "Reshape",
        "input": [
          "StatefulPartitionedCall/RealESRGAN_1/scale_correction_1/add",
          "StatefulPartitionedCall/RealESRGAN_1/pixel_shuffle_1/Reshape/shape"
        ],
        "attr": {
          "T": {
            "type": "DT_FLOAT"
          },
          "Tshape": {
            "type": "DT_INT32"
          }
        }
      },
      {
        "name": "StatefulPartitionedCall/RealESRGAN_1/pixel_shuffle_1/transpose",
        "op": "Transpose",
        "input": [
          "StatefulPartitionedCall/RealESRGAN_1/pixel_shuffle_1/Reshape",
          "StatefulPartitionedCall/RealESRGAN_1/pixel_shuffle_1/transpose/perm"
        ],
        "attr": {
          "Tperm": {
            "type": "DT_INT32"
          },
          "T": {
            "type": "DT_FLOAT"
          }
        }
      },
      {
        "name": "StatefulPartitionedCall/RealESRGAN_1/pixel_shuffle_1/Reshape_1",
        "op": "Reshape",
        "input": [
          "StatefulPartitionedCall/RealESRGAN_1/pixel_shuffle_1/transpose",
          "StatefulPartitionedCall/RealESRGAN_1/pixel_shuffle_1/Reshape_1/shape"
        ],
        "attr": {
          "T": {
            "type": "DT_FLOAT"
          },
          "Tshape": {
            "type": "DT_INT32"
          }
        }
      },
      {
        "name": "StatefulPartitionedCall/RealESRGAN_1/denormalize_1/mul",
        "op": "Mul",
        "input": [
          "StatefulPartitionedCall/RealESRGAN_1/pixel_shuffle_1/Reshape_1",
          "StatefulPartitionedCall/RealESRGAN_1/denormalize_1/mul/y"
        ],
        "attr": {
          "T": {
            "type": "DT_FLOAT"
          }
        }
      },
      {
        "name": "StatefulPartitionedCall/RealESRGAN_1/output_tensor_1/clip_by_value/Minimum",
        "op": "Minimum",
        "input": [
          "StatefulPartitionedCall/RealESRGAN_1/denormalize_1/mul",
          "StatefulPartitionedCall/RealESRGAN_1/output_tensor_1/clip_by_value/Minimum/y"
        ],
        "attr": {
          "T": {
            "type": "DT_FLOAT"
          }
        }
      },
      {
        "name": "StatefulPartitionedCall/RealESRGAN_1/output_tensor_1/clip_by_value",
        "op": "Maximum",
        "input": [
          "StatefulPartitionedCall/RealESRGAN_1/output_tensor_1/clip_by_value/Minimum",
          "StatefulPartitionedCall/RealESRGAN_1/output_tensor_1/clip_by_value/y"
        ],
        "attr": {
          "T": {
            "type": "DT_FLOAT"
          }
        }
      },
      {
        "name": "Identity",
        "op": "Identity",
        "input": [
          "StatefulPartitionedCall/RealESRGAN_1/output_tensor_1/clip_by_value"
        ],
        "attr": {
          "T": {
            "type": "DT_FLOAT"
          }
        }
      }
    ],
    "library": {},
    "versions": {
      "producer": 1994
    }
  },
  "weightsManifest": [
    {
      "paths": [
        "group1-shard1of1.bin"
      ],
      "weights": [
        {
          "name": "StatefulPartitionedCall/RealESRGAN_1/pixel_shuffle_1/Reshape/shape/3",
          "shape": [],
          "dtype": "int32"
        },
        {
          "name": "StatefulPartitionedCall/RealESRGAN_1/pixel_shuffle_1/Reshape/shape/4",
          "shape": [],
          "dtype": "int32"
        },
        {
          "name": "StatefulPartitionedCall/RealESRGAN_1/pixel_shuffle_1/transpose/perm",
          "shape": [
            6
          ],
          "dtype": "int32"
        },
        {
          "name": "StatefulPartitionedCall/RealESRGAN_1/pixel_shuffle_1/strided_slice/stack",
          "shape": [
            1
          ],
          "dtype": "int32"
        },
        {
          "name": "StatefulPartitionedCall/RealESRGAN_1/pixel_shuffle_1/strided_slice/stack_1",
          "shape": [
            1
          ],
          "dtype": "int32"
        },
        {
          "name": "StatefulPartitionedCall/RealESRGAN_1/pixel_shuffle_1/strided_slice/stack_2",
          "shape": [
            1
          ],
          "dtype": "int32"
        },
        {
          "name": "StatefulPartitionedCall/RealESRGAN_1/pixel_shuffle_1/strided_slice_1/stack",
          "shape": [
            1
          ],
          "dtype": "int32"
        },
        {
          "name": "StatefulPartitionedCall/RealESRGAN_1/pixel_shuffle_1/strided_slice_1/stack_1",
          "shape": [
            1
          ],
          "dtype": "int32"
        },
        {
          "name": "StatefulPartitionedCall/RealESRGAN_1/pixel_shuffle_1/strided_slice_1/stack_2",
          "shape": [
            1
          ],
          "dtype": "int32"
        },
        {
          "name": "StatefulPartitionedCall/RealESRGAN_1/pixel_shuffle_1/mul/y",
          "shape": [],
          "dtype": "int32"
        },
        {
          "name": "StatefulPartitionedCall/RealESRGAN_1/pixel_shuffle_1/strided_slice_2/stack",
          "shape": [
            1
          ],
          "dtype": "int32"
        },
        {
          "name": "StatefulPartitionedCall/RealESRGAN_1/pixel_shuffle_1/strided_slice_2/stack_1",
          "shape": [
            1
          ],
          "dtype": "int32"
        },
        {
          "name": "StatefulPartitionedCall/RealESRGAN_1/pixel_shuffle_1/strided_slice_2/stack_2",
          "shape": [
            1
          ],
          "dtype": "int32"
        },
        {
          "name": "StatefulPartitionedCall/RealESRGAN_1/pixel_shuffle_1/mul_1/y",
          "shape": [],
          "dtype": "int32"
        },
        {
          "name": "StatefulPartitionedCall/RealESRGAN_1/prelu_33_1/Neg",
          "shape": [
            1,
            1,
            64
          ],
          "dtype": "float32"
        },
        {
          "name": "StatefulPartitionedCall/RealESRGAN_1/prelu_31_1/Neg",
          "shape": [
            1,
            1,
            64
          ],
          "dtype": "float32"
        },
        {
          "name": "StatefulPartitionedCall/RealESRGAN_1/prelu_29_1/Neg",
          "shape": [
            1,
            1,
            64
          ],
          "dtype": "float32"
        },
        {
          "name": "StatefulPartitionedCall/RealESRGAN_1/prelu_27_1/Neg",
          "shape": [
            1,
            1,
            64
          ],
          "dtype": "float32"
        },
        {
          "name": "StatefulPartitionedCall/RealESRGAN_1/prelu_25_1/Neg",
          "shape": [
            1,
            1,
            64
          ],
          "dtype": "float32"
        },
        {
          "name": "StatefulPartitionedCall/RealESRGAN_1/prelu_23_1/Neg",
          "shape": [
            1,
            1,
            64
          ],
          "dtype": "float32"
        },
        {
          "name": "StatefulPartitionedCall/RealESRGAN_1/prelu_21_1/Neg",
          "shape": [
            1,
            1,
            64
          ],
          "dtype": "float32"
        },
        {
          "name": "StatefulPartitionedCall/RealESRGAN_1/prelu_19_1/Neg",
          "shape": [
            1,
            1,
            64
          ],
          "dtype": "float32"
        },
        {
          "name": "StatefulPartitionedCall/RealESRGAN_1/prelu_17_1/Neg",
          "shape": [
            1,
            1,
            64
          ],
          "dtype": "float32"
        },
        {
          "name": "StatefulPartitionedCall/RealESRGAN_1/prelu_15_1/Neg",
          "shape": [
            1,
            1,
            64
          ],
          "dtype": "float32"
        },
        {
          "name": "StatefulPartitionedCall/RealESRGAN_1/prelu_13_1/Neg",
          "shape": [
            1,
            1,
            64
          ],
          "dtype": "float32"
        },
        {
          "name": "StatefulPartitionedCall/RealESRGAN_1/prelu_11_1/Neg",
          "shape": [
            1,
            1,
            64
          ],
          "dtype": "float32"
        },
        {
          "name": "StatefulPartitionedCall/RealESRGAN_1/prelu_9_1/Neg",
          "shape": [
            1,
            1,
            64
          ],
          "dtype": "float32"
        },
        {
          "name": "StatefulPartitionedCall/RealESRGAN_1/prelu_7_1/Neg",
          "shape": [
            1,
            1,
            64
          ],
          "dtype": "float32"
        },
        {
          "name": "StatefulPartitionedCall/RealESRGAN_1/prelu_5_1/Neg",
          "shape": [
            1,
            1,
            64
          ],
          "dtype": "float32"
        },
        {
          "name": "StatefulPartitionedCall/RealESRGAN_1/prelu_3_1/Neg",
          "shape": [
            1,
            1,
            64
          ],
          "dtype": "float32"
        },
        {
          "name": "StatefulPartitionedCall/RealESRGAN_1/prelu_1_1/Neg",
          "shape": [
            1,
            1,
            64
          ],
          "dtype": "float32"
        },
        {
          "name": "StatefulPartitionedCall/RealESRGAN_1/conv_0_1/convolution/ArithmeticOptimizer/FoldMultiplyIntoConv_scaled_StatefulPartitionedCall/RealESRGAN_1/conv_0_1/convolution_ReadVariableOp",
          "shape": [
            3,
            3,
            3,
            64
          ],
          "dtype": "float32"
        },
        {
          "name": "StatefulPartitionedCall/RealESRGAN_1/conv_0_1/Reshape",
          "shape": [
            1,
            1,
            1,
            64
          ],
          "dtype": "float32"
        },
        {
          "name": "StatefulPartitionedCall/RealESRGAN_1/conv_2_1/convolution/ReadVariableOp",
          "shape": [
            3,
            3,
            64,
            64
          ],
          "dtype": "float32"
        },
        {
          "name": "StatefulPartitionedCall/RealESRGAN_1/conv_2_1/Reshape",
          "shape": [
            1,
            1,
            1,
            64
          ],
          "dtype": "float32"
        },
        {
          "name": "StatefulPartitionedCall/RealESRGAN_1/conv_4_1/convolution/ReadVariableOp",
          "shape": [
            3,
            3,
            64,
            64
          ],
          "dtype": "float32"
        },
        {
          "name": "StatefulPartitionedCall/RealESRGAN_1/conv_4_1/Reshape",
          "shape": [
            1,
            1,
            1,
            64
          ],
          "dtype": "float32"
        },
        {
          "name": "StatefulPartitionedCall/RealESRGAN_1/conv_6_1/convolution/ReadVariableOp",
          "shape": [
            3,
            3,
            64,
            64
          ],
          "dtype": "float32"
        },
        {
          "name": "StatefulPartitionedCall/RealESRGAN_1/conv_6_1/Reshape",
          "shape": [
            1,
            1,
            1,
            64
          ],
          "dtype": "float32"
        },
        {
          "name": "StatefulPartitionedCall/RealESRGAN_1/conv_8_1/convolution/ReadVariableOp",
          "shape": [
            3,
            3,
            64,
            64
          ],
          "dtype": "float32"
        },
        {
          "name": "StatefulPartitionedCall/RealESRGAN_1/conv_8_1/Reshape",
          "shape": [
            1,
            1,
            1,
            64
          ],
          "dtype": "float32"
        },
        {
          "name": "StatefulPartitionedCall/RealESRGAN_1/conv_10_1/convolution/ReadVariableOp",
          "shape": [
            3,
            3,
            64,
            64
          ],
          "dtype": "float32"
        },
        {
          "name": "StatefulPartitionedCall/RealESRGAN_1/conv_10_1/Reshape",
          "shape": [
            1,
            1,
            1,
            64
          ],
          "dtype": "float32"
        },
        {
          "name": "StatefulPartitionedCall/RealESRGAN_1/conv_12_1/convolution/ReadVariableOp",
          "shape": [
            3,
            3,
            64,
            64
          ],
          "dtype": "float32"
        },
        {
          "name": "StatefulPartitionedCall/RealESRGAN_1/conv_12_1/Reshape",
          "shape": [
            1,
            1,
            1,
            64
          ],
          "dtype": "float32"
        },
        {
          "name": "StatefulPartitionedCall/RealESRGAN_1/conv_14_1/convolution/ReadVariableOp",
          "shape": [
            3,
            3,
            64,
            64
          ],
          "dtype": "float32"
        },
        {
          "name": "StatefulPartitionedCall/RealESRGAN_1/conv_14_1/Reshape",
          "shape": [
            1,
            1,
            1,
            64
          ],
          "dtype": "float32"
        },
        {
          "name": "StatefulPartitionedCall/RealESRGAN_1/conv_16_1/convolution/ReadVariableOp",
          "shape": [
            3,
            3,
            64,
            64
          ],
          "dtype": "float32"
        },
        {
          "name": "StatefulPartitionedCall/RealESRGAN_1/conv_16_1/Reshape",
          "shape": [
            1,
            1,
            1,
            64
          ],
          "dtype": "float32"
        },
        {
          "name": "StatefulPartitionedCall/RealESRGAN_1/conv_18_1/convolution/ReadVariableOp",
          "shape": [
            3,
            3,
            64,
            64
          ],
          "dtype": "float32"
        },
        {
          "name": "StatefulPartitionedCall/RealESRGAN_1/conv_18_1/Reshape",
          "shape": [
            1,
            1,
            1,
            64
          ],
          "dtype": "float32"
        },
        {
          "name": "StatefulPartitionedCall/RealESRGAN_1/conv_20_1/convolution/ReadVariableOp",
          "shape": [
            3,
            3,
            64,
            64
          ],
          "dtype": "float32"
        },
        {
          "name": "StatefulPartitionedCall/RealESRGAN_1/conv_20_1/Reshape",
          "shape": [
            1,
            1,
            1,
            64
          ],
          "dtype": "float32"
        },
        {
          "name": "StatefulPartitionedCall/RealESRGAN_1/conv_22_1/convolution/ReadVariableOp",
          "shape": [
            3,
            3,
            64,
            64
          ],
          "dtype": "float32"
        },
        {
          "name": "StatefulPartitionedCall/RealESRGAN_1/conv_22_1/Reshape",
          "shape": [
            1,
            1,
            1,
            64
          ],
          "dtype": "float32"
        },
        {
          "name": "StatefulPartitionedCall/RealESRGAN_1/conv_24_1/convolution/ReadVariableOp",
          "shape": [
            3,
            3,
            64,
            64
          ],
          "dtype": "float32"
        },
        {
          "name": "StatefulPartitionedCall/RealESRGAN_1/conv_24_1/Reshape",
          "shape": [
            1,
            1,
            1,
            64
          ],
          "dtype": "float32"
        },
        {
          "name": "StatefulPartitionedCall/RealESRGAN_1/conv_26_1/convolution/ReadVariableOp",
          "shape": [
            3,
            3,
            64,
            64
          ],
          "dtype": "float32"
        },
        {
          "name": "StatefulPartitionedCall/RealESRGAN_1/conv_26_1/Reshape",
          "shape": [
            1,
            1,
            1,
            64
          ],
          "dtype": "float32"
        },
        {
          "name": "StatefulPartitionedCall/RealESRGAN_1/conv_28_1/convolution/ReadVariableOp",
          "shape": [
            3,
            3,
            64,
            64
          ],
          "dtype": "float32"
        },
        {
          "name": "StatefulPartitionedCall/RealESRGAN_1/conv_28_1/Reshape",
          "shape": [
            1,
            1,
            1,
            64
          ],
          "dtype": "float32"
        },
        {
          "name": "StatefulPartitionedCall/RealESRGAN_1/conv_30_1/convolution/ReadVariableOp",
          "shape": [
            3,
            3,
            64,
            64
          ],
          "dtype": "float32"
        },
        {
          "name": "StatefulPartitionedCall/RealESRGAN_1/conv_30_1/Reshape",
          "shape": [
            1,
            1,
            1,
            64
          ],
          "dtype": "float32"
        },
        {
          "name": "StatefulPartitionedCall/RealESRGAN_1/conv_32_1/convolution/ReadVariableOp",
          "shape": [
            3,
            3,
            64,
            64
          ],
          "dtype": "float32"
        },
        {
          "name": "StatefulPartitionedCall/RealESRGAN_1/conv_32_1/Reshape",
          "shape": [
            1,
            1,
            1,
            64
          ],
          "dtype": "float32"
        },
        {
          "name": "StatefulPartitionedCall/RealESRGAN_1/conv_34_1/convolution/ReadVariableOp",
          "shape": [
            3,
            3,
            64,
            48
          ],
          "dtype": "float32"
        },
        {
          "name": "StatefulPartitionedCall/RealESRGAN_1/conv_34_1/add",
          "shape": [
            1,
            1,
            1,
            48
          ],
          "dtype": "float32"
        },
        {
          "name": "StatefulPartitionedCall/RealESRGAN_1/pixel_shuffle_1/strided_slice_3/stack",
          "shape": [
            1
          ],
          "dtype": "int32"
        },
        {
          "name": "StatefulPartitionedCall/RealESRGAN_1/pixel_shuffle_1/strided_slice_3/stack_1",
          "shape": [
            1
          ],
          "dtype": "int32"
        },
        {
          "name": "StatefulPartitionedCall/RealESRGAN_1/pixel_shuffle_1/strided_slice_3/stack_2",
          "shape": [
            1
          ],
          "dtype": "int32"
        },
        {
          "name": "StatefulPartitionedCall/RealESRGAN_1/pixel_shuffle_1/floordiv/y",
          "shape": [],
          "dtype": "int32"
        },
        {
          "name": "StatefulPartitionedCall/RealESRGAN_1/denormalize_1/mul/y",
          "shape": [],
          "dtype": "float32"
        },
        {
          "name": "StatefulPartitionedCall/RealESRGAN_1/output_tensor_1/clip_by_value/Minimum/y",
          "shape": [],
          "dtype": "float32"
        },
        {
          "name": "StatefulPartitionedCall/RealESRGAN_1/output_tensor_1/clip_by_value/y",
          "shape": [],
          "dtype": "float32"
        }
      ]
    }
  ],
  "signature": {
    "inputs": {
      "serving_default_input_tensor": {
        "name": "serving_default_input_tensor",
        "dtype": "float32",
        "shape": [
          -1,
          -1,
          -1,
          3
        ]
      }
    },
    "outputs": {
      "StatefulPartitionedCall_output_tensor": {
        "name": "StatefulPartitionedCall_output_tensor",
        "dtype": "float32",
        "shape": [
          -1,
          -1,
          -1,
          3
        ]
      }
    }
  },
  "userDefinedMetadata": {
    "scale_factor": 4,
    "tile_size": 128,
    "input_format": "RGB",
    "preprocessing": "normalize to [0,1]",
    "postprocessing": "clip and scale to [0,255]",
    "backend": "webgpu"
  }
}